log/dct/checkpoint.pth.tar (torch_old, 1794 bytes, 7 tensors)

fc1.weight f4 [4, 1]
00000000: 266a 6c3f 6020 72bf 5a4b 14bf 4d8a 143f
0.9234947 -0.9458065 -0.5792748 0.5802353

fc1.bias f4 [4]
00000000: cac8 30bf c67c 20bf ac4b 3cbf d4d8 06bf
-0.6905638 -0.6269039 -0.73552966 -0.52674603

fc2.weight f4 [8, 4]
00000000: 525a 12bc 8836 b43e 743c 1f3e e696 c53e
00000010: 08f4 cb3e a814 6e3e 1036 673d b8e8 8a3d
00000020: 579d 02bf a0d0 df3e 924f dc3e 8fda 83be
00000030: 34de cd3d c064 5d3c d08f 51be 3e9c 873e
00000040: 7fb4 a33e c80c 5dbe 2acf 9bbe 9711 3e3e
00000050: 911b a73e 2082 cd3c d81d cbbd b8d2 e93e
00000060: 9328 be3e 2cb0 5bbe aa71 bebe 61e5 de3e
00000070: 0624 b1be 1691 d03e 4030 33be c04c e2bd
-0.008932667 0.35197854 0.15550405 0.3859169 0.3983462 0.23250067 0.056448042 0.06782669
-0.5102133 0.43713856 0.43029457 -0.25752684 0.100521475 0.01351279 -0.20465016 0.2648639
0.31973645 -0.21586907 -0.3043149 0.18561397 0.3263822 0.025086462 -0.099178016 0.45668578
0.3714033 -0.21453923 -0.37196094 0.43534377 -0.34597796 0.40735692 -0.17498875 -0.11049795

fc2.bias f4 [8]
00000000: a709 ee3e 94a9 96be aa03 da3e 4142 493e
00000010: 6b98 ac3d 9e14 ac3e b54c 3ebe 70f2 cdbd
0.4649174 -0.29426253 0.4258092 0.1965418 0.08427509 0.3360948 -0.18583949 -0.10056007

fc3.weight f4 [8, 8]
00000000: e294 b8be 1513 9a3e 850b 11be 1a0e 9e3c
00000010: 23a2 76be fca3 d13c be26 29be 68d1 c63d
00000020: 4a03 363e 985b afbd e776 803e 7c73 5cbe
00000030: 626e f6bd f051 933d d073 083e 5a4f 2d3e
00000040: c82d 55bd 0fa5 73be f86e a6bd cf55 4fbe
00000050: 0089 c5bc e003 c93c 2ecd 5d3e cfcc 9c3e
00000060: bbf5 7c3e f6a8 683e f352 e4bd 10d2 42be
00000070: c918 a23e c366 343d 4d8e 003e ea0f 4d3e
00000080: 606a 55bc d637 b1be 7052 403d 54a9 d3bd
00000090: c65b 553e 78f3 54bd 2310 ab3e 93fa 10be
000000a0: a816 bb3d 67a5 34be 4afb 20be ba26 11be
000000b0: 1dbf 01be 96dc 0b3e 035f 873e 9ea9 633e
000000c0: 74ce 633e 8bf6 9f3e 0f18 873e cd7f 80bc
000000d0: 667f 18be 9cf6 903e 70ba 983e e20f a1be
000000e0: 4e1d cbbe c6f1 6cbe 22dd 973c a3ee 37be
000000f0: 53c3 4abe edec 013e 6a60 83be 856c 853e
-0.3605109 0.30092683 -0.1416455 0.019293834 -0.24085288 0.02559089 -0.16518685 0.0970791
0.17774692 -0.08562392 0.25090715 -0.21528429 -0.120327726 0.07193363 0.13325429 0.16924801
-0.052045614 -0.23793434 -0.08126634 -0.20247577 -0.024113178 0.02453798 0.21660301 0.30625007
0.24703114 0.22720703 -0.11148634 -0.19025445 0.31659535 0.044043314 0.12554283 0.20025602
-0.01302585 -0.34612912 0.04695362 -0.10335031 0.2083579 -0.051990002 0.3341075 -0.14158086
0.09135181 -0.17641221 -0.15720859 -0.1417493 -0.1267056 0.13658366 0.26439676 0.22232673
0.22246724 0.31242785 0.26385543 -0.01568594 -0.14892349 0.28313148 0.2982974 -0.3145743
-0.39670795 -0.23139104 0.018538062 -0.17962126 -0.19801073 0.12688036 -0.25659496 0.26059356

fc3.bias f4 [8]
00000000: 195a 633e e605 8dbe a8cc 57bd 1ecc 2e3e
00000010: fdd2 12be ccdb 1cbe 7fbc 663d dd6f 6d3e
0.22202338 -0.27543563 -0.05268541 0.17070052 -0.14338298 -0.15318221 0.056332108 0.23187204

out.weight f4 [1, 8]
00000000: dc2a 933e 067b 173e 76ad 743e 3e8c b6be
00000010: 37c8 823e c0be 333d 3107 bbbe d94a a53d
0.28743637 0.14793023 0.23894295 -0.3565387 0.25543377 0.043883085 -0.36528924 0.08070917
