log/fir/checkpoint.pth.tar (torch_old, 35336 bytes, 7 tensors)

fc1.weight f4 [64, 1]
00000000: 301c 6a3f 6020 72bf 5a4b 14bf 9e91 143f
00000010: ee0a 36bf c3f6 1cbf aa49 2dbf e649 0cbf
00000020: 0074 92bd 10c5 2e3f 743c 9f3e 06fe 483f
00000030: 9ac6 483f a814 ee3e 6d67 bb3b 31c5 023e
00000040: 18ae 6abf a0d0 5f3f 850d 4e3f a836 e5be
00000050: 9103 a33e c064 dd3c cc69 d4be f03b 043f
00000060: 56e0 453f c80c ddbe 2acf 1bbf 4c55 c93e
00000070: da5e 443f be38 ed3c 3008 1cbe 5441 523f
00000080: 824f 453f ac19 aebe d733 37bf 08f7 633f
00000090: 0624 31bf f08d 453f 16f2 e0be c04c 62be
000000a0: 0a41 4b3f 94a9 16bf 2c78 383f 7c90 093f
000000b0: 0021 8bbc 10e8 ec3e b060 c3be fdd7 42be
000000c0: f30c 60bf f0e4 593f 1061 8bbe d790 323e
000000d0: 9865 f2be 1022 543e 5437 efbe 8560 7b3e
000000e0: 6714 2c3f a6b1 79be dd60 213f eae1 1bbf
000000f0: fd0e 99be e2c2 d93d 0cf9 c03e 0091 c93e
0.9144926 -0.9458065 -0.5792748 0.58034694 -0.7111043 -0.6131403 -0.6769053 -0.5480026
-0.071510315 0.68269444 0.3110081 0.7851261 0.7842804 0.46500134 0.0057191164 0.12770535
-0.91671896 0.8742771 0.8048938 -0.44768262 0.31838658 0.02702558 -0.41486967 0.5165396
0.77295434 -0.43173814 -0.6086298 0.3932289 0.7670723 0.02895772 -0.15237498 0.8213093
0.77074444 -0.3400396 -0.71563476 0.89048815 -0.6919559 0.77169704 -0.43934697 -0.2209959
0.79396117 -0.58852506 0.7205837 0.5373609 -0.016983509 0.462708 -0.38159704 -0.19027705
-0.8751976 0.85114956 -0.2722249 0.17438065 -0.47343135 0.20716119 -0.467219 0.24548538
0.6721863 -0.24384174 0.63038427 -0.6089159 -0.29894248 0.10632874 0.37690008 0.3936844

fc1.bias f4 [64]
00000000: 80bd 16be 6a48 2cbf 585f 6bbe ae9b 12bf
00000010: b0ad 8bbd feeb 623d 339d 0f3f ebc6 493f
00000020: caf0 bf3e 1f17 263f d493 1abf 02d4 46bf
00000030: 5d0d 2a3f f800 0cbe c513 a73e a3f1 0d3f
00000040: 60e8 16bd d09f 7abf e30a d23d d0aa 95be
00000050: 766b 023f 4094 16be 408e 633f f007 cdbe
00000060: 1b2a 953e e078 ffbe 90a9 e3be 6046 cdbe
00000070: 447d b7be 322a b03e 23ca 303f c669 0e3f
00000080: d6d7 c03e 3157 583f b691 f43e 5022 66be
00000090: 56d6 2bbf edbf 013f 8dc0 4f3f b0c6 63bf
000000a0: 542f 72bf 868b 27bf b745 273e 64fe b6be
000000b0: 7c91 98be 4e75 fa3e e2ed 08bf 8abc 2e3f
000000c0: 869c 293f cc6f 47bf e097 18be 78bc 343e
000000d0: 08a4 cfbe e0d4 ddbe a02a 37bd f006 433f
000000e0: 0a8f 713f a712 be3e d735 1e3f e492 23bf
000000f0: c33c 1c3f 152b ec3d 185e 49bf 9272 a43e
-0.14720726 -0.67297995 -0.2298559 -0.572688 -0.06820238 0.05540084 0.5609924 0.7881915
0.37488395 0.6487903 -0.6038182 -0.7766725 0.6642664 -0.13672245 0.3263227 0.55446833
-0.036842704 -0.97900105 0.10255983 -0.29231882 0.5094522 -0.1470499 0.8888893 -0.40045118
0.29133686 -0.49896908 -0.44465303 -0.40092754 -0.35837758 0.34407192 0.69058436 0.5563015
0.3766467 0.84508044 0.4776742 -0.22474027 -0.67123926 0.5068348 0.81153184 -0.8897505
-0.94603467 -0.6544727 0.16335188 -0.3574096 -0.29798496 0.4891762 -0.5348798 0.6825644
0.6625446 -0.77904963 -0.14901686 0.1765002 -0.40554833 -0.43326473 -0.044718385 0.7618246
0.94358885 0.37123606 0.61800903 -0.6389601 0.61030215 0.11531655 -0.786592 0.3211866

fc2.weight f4 [64, 64]
00000000: 1600 ca3d 1604 b93d f8fb d0bd 0c48 ac3d
00000010: 0e00 d8bd 186d 3b3d 48c0 a83d 28e9 12bd
00000020: e4c7 ec3d ac94 8bbd 4a10 9c3d 10bc 953c
00000030: 2cfa d2bd 64bf 63bd f4b3 b53d 7e20 e2bd
00000040: 20b6 1a3d 6025 c8bb 3039 12bd 8091 ddbc
00000050: c0c8 223b e0ab a3bc 2ae2 e6bd a86a e63c
00000060: 7472 3f3d 22d4 8ebd 58fa d9bc 3cef 413d
00000070: dc35 26bd 0468 25bd 0018 8338 a8c8 e93c
00000080: 701f 7e3c a4ea 783d 6e45 b3bd f26b f5bd
00000090: 30da c3bd a66c 933d 0031 24ba a8aa 38bd
000000a0: 1477 a6bd f8d7 90bc 308e 6dbc ba19 e4bd
000000b0: 0a4b 903d c078 723c b4b2 3a3d 9873 953c
000000c0: 18e1 45bd 807c b6bd e6f1 a33d 5af2 a13d
000000d0: 1c98 963d 204e 75bd 2424 fe3d 5289 8dbd
000000e0: 3cda 14bd c8d5 0bbd a2ae c7bd c67f cf3d
000000f0: 4001 3d3d 8087 803d b0eb cc3c b841 8bbd
00000100: f06e 903d 7c80 40bd 6896 0fbd 282d ebbc
00000110: 64d8 593d ba82 00bd ea12 88bb decb 93bd
00000120: 2f1a b93b 036e 753d 98cf edbd 3c90 39bd
00000130: e035 0c3c 2c6e ac3d 81c3 20be cdd8 9dbd
00000140: b435 aabd 00ed b53b 645b 5abd 0217 83bd
00000150: 6b99 d3bc a04a 4c3c 8319 21be d00e 2b3c
00000160: 797a 923c ce63 9b3d 10df b03d e06d ae3b
00000170: 2075 b6bc f223 7bbd 9a34 dabd 4b62 cdbd
00000180: 3b43 0ebd 269e aabd 55fb ef3b f84f 993c
00000190: 80c9 f83b 3090 2ebd f972 0ebe a6e7 d93d
000001a0: 1240 e5bd 720a f23d a87e 5bbd faf9 e4bd
000001b0: a096 ccbb 3757 c8bd e451 0bbd 297d f13c
000001c0: c067 3d3c 0c20 13bd a62c f6bd e6db 553d
000001d0: 3cde dfbd 103c 66bc 7297 f2bd 2c7f 7a3d
000001e0: a2db 09be a53a 5dbd 8a8e c3bd 18bd 863d
000001f0: 2ba5 183c 16dd 2bbe ac31 bc3d c6e5 e5bd
00000200: 701f 9dbd 42bd de3d 78b1 adbd 30ea 673d
00000210: 2233 e2bd 74cc 173d 86da fd3d 9047 e03c
00000220: 30ee d83d 728b 82bd b8ff e5bd e0b6 463d
00000230: 347c 8bbd b012 b23d c8b7 a5bd 32ce ebbd
00000240: 408b c6bd b273 dbbd c6b9 e9bd 148f 433d
00000250: 5465 3ebd 48dd c0bc a45e d1bd 6802 72bd
00000260: 6068 233d 040e 8e3d e8f1 6d3d 86c1 823d
00000270: 583e d13c fcf6 eabd b8ef 013d eea9 a83d
00000280: 3464 ad3d 8060 28bc 3e51 823d 38aa acbd
00000290: b05d 653c 9499 42bd 1685 873d c821 f63d
000002a0: 3027 683c 0886 833d 9444 1dbd 3227 92bd
000002b0: b022 743d 70d0 87bc 48ec 91bd 5467 0bbd
000002c0: a0ea a63d 8061 52bd 6ce5 b1bd 2ac6 a53d
000002d0: eed4 d33d 74ed 47bd 1ad2 c43d 6c22 f8bd
000002e0: 68f5 c8bd 66e8 c5bd 6c20 aabd fe1c c33d
000002f0: 9cfc 17bd 76ff 9abd 6409 e0bd ea48 cabd
00000300: 58a3 fa3d 92ca c6bd 20f6 58bd 5071 27bc
00000310: 40da b0bc e0a1 423d 98ce fcbc 005f 10ba
00000320: 24d7 223d 6891 f6bd 80d5 903c 2048 d93d
00000330: 10da c83d 50d9 5bbc 9c72 af3d 20f2 aabd
00000340: 4c67 f73d 8854 f2bd e05a 543c a03c ef3c
00000350: 000f cdbb 30fe 2b3d 783c d1bd 9044 c7bd
00000360: 5e8f d33d 8096 2b3d f05a fb3c 2831 f0bc
00000370: 66fa 9dbd 926d eabd 801c b93c 684b 073d
00000380: c0d3 303c d811 a73c 7e29 853d 3a55 90bd
00000390: acb2 ad3d b43a 553d 0036 ff3d 703a 953c
000003a0: 0a63 d7bd 343e 943d 68c7 f13c 5ac1 ac3d
000003b0: a0ce 23bc 8c65 273d ba90 98bd c09e 903b
000003c0: 56f5 bcbd 8619 e23d 9c48 07bd 20a6 b73b
000003d0: c8c7 20bd 7e60 cf3d ae2e 9abd e875 d0bc
000003e0: 7e8c d6bd 80e9 8dba ea9e f8bd a6b6 aabd
000003f0: 0037 d2bc f4f4 44bd 88fc 113d d06b 113c
0.09863298 0.090339825 -0.10204309 0.08412179 -0.105468854 0.045758337 0.082398 -0.035866886
0.115615636 -0.06815466 0.076202944 0.018278152 -0.10301623 -0.055602446 0.08872214 -0.11041354
0.037771344 -0.006107971 -0.03569907 -0.027046919 0.0024838895 -0.019979417 -0.11273606 0.02812703
0.04674001 -0.06974055 -0.026608631 0.047347292 -0.040578708 -0.0403824 6.251037e-05 0.028538063
0.015510425 0.060770646 -0.08753477 -0.119834796 -0.095631 0.071984574 -0.0006263405 -0.045084625
-0.08128181 -0.017681107 -0.014499232 -0.111377195 0.070455626 0.014799297 0.04558058 0.018243596
-0.04831037 -0.08910465 0.08005123 0.07907553 0.07353231 -0.05988896 0.12409237 -0.069109574
-0.036340937 -0.034139425 -0.097501054 0.10131793 0.04614377 0.062758446 0.025014728 -0.06799644
0.0705241 -0.046997532 -0.035055548 -0.028708056 0.05318488 -0.03137467 -0.0041526454 -0.07216619
0.0056488733 0.05991937 -0.11611861 -0.04530357 0.008557767 0.08419451 -0.15699579 -0.07707367
-0.08311024 0.0055519342 -0.053309813 -0.06400873 -0.025829991 0.012468964 -0.15732388 0.010440543
0.017880665 0.075873956 0.08636296 0.0053231567 -0.022272646 -0.061313577 -0.10654564 -0.100285135
-0.034732085 -0.08330946 0.0073236623 0.01871489 0.00759238 -0.042617977 -0.13911046 0.106398866
-0.11193861 0.118183985 -0.053587586 -0.11180492 -0.006243542 -0.0978226 -0.034013644 0.029478626
0.01156038 -0.035919234 -0.12020235 0.052211665 -0.1093106 -0.014052406 -0.11845292 0.061156437
-0.1346269 -0.054011006 -0.095486715 0.065790355 0.009316723 -0.16783556 0.09189162 -0.112254664
-0.07672012 0.10875942 -0.08481115 0.056619823 -0.11044909 0.037060216 0.12395196 0.027377874
0.10592306 -0.06374253 -0.11230415 0.048514247 -0.06810799 0.086949706 -0.08091694 -0.11513938
-0.096945286 -0.107154265 -0.114123866 0.04774387 -0.046483353 -0.023543015 -0.102231294 -0.059084326
0.03989446 0.06936267 0.058092028 0.06384568 0.025542423 -0.1147289 0.031722754 0.082355365
0.08466378 -0.010276914 0.06363152 -0.08430904 0.013999388 -0.047509745 0.06617181 0.12018162
0.014169499 0.06422049 -0.03839548 -0.07136382 0.059603393 -0.016578883 -0.07125145 -0.03403409
0.0815022 -0.051362514 -0.08686337 0.080944374 0.103433475 -0.048810437 0.09610386 -0.121159405
-0.098124325 -0.09663467 -0.08306965 0.09527014 -0.03710614 -0.075682566 -0.10939291 -0.098771885
0.122381866 -0.09706606 -0.052969098 -0.010219887 -0.021588445 0.047517657 -0.03086023 -0.000550732
0.039755955 -0.12039453 0.01767993 0.1060946 0.09807217 -0.013418511 0.08566782 -0.08346963
0.12080249 -0.11832529 0.012961119 0.029203713 -0.0062578917 0.04199046 -0.102166116 -0.09729874
0.103300795 0.041891575 0.03068301 -0.029320315 -0.07713775 -0.1144668 0.022596598 0.033030897
0.010792673 0.02039425 0.06502055 -0.07047506 0.084813446 0.052057937 0.124614716 0.018216342
-0.10516937 0.07238427 0.02951403 0.084353164 -0.009997994 0.040868327 -0.074494794 0.0044134557
-0.092264816 0.110400245 -0.03302823 0.0056045204 -0.039253026 0.10125826 -0.07528435 -0.025446847
-0.104760155 -0.0010827035 -0.121396855 -0.08335619 -0.025660992 -0.048085168 0.035641223 0.008875802

fc2.bias f4 [64]
00000000: 9ee9 dc3d 93bb 96bd 0814 bc3d d0ca 3a3d
00000010: b92a b6bd d338 ae3c 0091 593d 525f 14be
00000020: 902f fcbd c1e7 5ebd 7698 fcbd d9f0 dfbd
00000030: 16ac c4bd ee58 963d b333 eabc a697 08be
00000040: aeb1 1dbd 5eda b1bd 008b 70bb 65b8 38bd
00000050: 9ea4 e3bd a9bb a83d 3cb3 053d 52ce 8bbd
00000060: bc5d ef3d c46d 4e3d 70d1 b13c d7bb 7dbc
00000070: 0854 25be c4be b0bc 1cb2 143d 40e4 97bd
00000080: 0a74 a33c 0ee6 403d d6bf 20be 0078 18be
00000090: 5688 a33d da77 9abd b233 acbd d4b2 a4bd
000000a0: 1cff efbd 9434 bfbd 5064 fbbd 10a4 ef3d
000000b0: 48b6 e2bd ce96 d73d 953e 3dbd ab2f ebbd
000000c0: 7503 c6bd 22b5 293d 2f78 27be 0ce6 46bd
000000d0: c8b9 ccbd 8063 7b3c 9e34 26be 1d67 d2bd
000000e0: 56bc 593d 4adc d03d d05e bbbd 6078 c5bc
000000f0: d8c9 f0bc fe35 ef3d e097 d7bc edf3 53bb
0.107867464 -0.07359996 0.09183508 0.045603573 -0.088948674 0.02126733 0.0531168 -0.14489487
-0.12313759 -0.054420236 -0.12333767 -0.1093461 -0.09603135 0.07341181 -0.028589105 -0.133391
-0.038499527 -0.08684228 -0.0036703944 -0.045097727 -0.111153826 0.08238918 0.032641634 -0.06826462
0.116878 0.05039765 0.021706313 -0.015486679 -0.16145337 -0.02157534 0.03630267 -0.07416582
0.019952793 0.047094397 -0.1569818 -0.14889526 0.079849884 -0.07542391 -0.084082976 -0.08041921
-0.1171858 -0.093362 -0.122749925 0.11701214 -0.11069924 0.105268106 -0.04620226 -0.11483701
-0.09668628 0.041432507 -0.1635444 -0.048559234 -0.099963725 0.015343547 -0.1623101 -0.102735735
0.053158127 0.10198267 -0.091489434 -0.02410525 -0.029393122 0.1168022 -0.026317537 -0.0032341436

fc3.weight f4 [64, 64]
00000000: de11 ba3d ba49 d73d a009 a4bc 9431 fb3d
00000010: e6cf 31be feab 7c3c b0fd 383c b0b0 2bbc
00000020: 787a a6bd e076 c0bc c072 98bd 6e6f ec3d
00000030: e0c9 c4bb 00fb 88bd 96b4 953d 10ba 71bc
00000040: 0094 0a3d 9a8f e8bd b083 213c 5c18 32bd
00000050: d87a 7dbd cfe4 51bd ead9 c23d 120e f63d
00000060: 0ec0 0fbe 4073 2ebc e0b5 633d 30da 6bbc
00000070: 0c89 a93d 5c1a 50bd 3ef7 933d a680 d73d
00000080: 00e2 cf3c 4e4b 12be 024d c6bd 0c39 b9bd
00000090: 5892 343d a049 6e3d 06d5 ba3d a011 e0bc
000000a0: 26e6 82bd ec14 8b3d ea79 be3d 0884 f63d
000000b0: 0c93 013d da4b f13d 0693 dc3d c448 c33d
000000c0: 2b8e bcbd 4039 37bc b8b3 6fbd d027 513c
000000d0: 5452 c0bd d063 debd 5a74 89bb a4ed f13d
000000e0: 906c 6abc cc46 f2bd 94b6 c9bd e02a ec3c
000000f0: 42bf f63d 9879 26bd 6c32 f13d 7e6f 23be
00000100: da12 903d 7cc3 7ebd 6a47 babd cc28 463d
00000110: 13a7 7ebd 4f82 06bc 0a83 a23d 52ff fa3d
00000120: 30c6 f43d 603c 883d aa81 dfbd 2690 edbd
00000130: 0050 bc3d a482 663d 6848 9ebc fabd db3d
00000140: 7c38 5f3d dcd5 fbbd 38ad ed3c a846 aebd
00000150: ac2d 043d a72d 283d b89a ac3d 84b4 4e3d
00000160: 63b7 7b3b 8636 d5bd 02df b9bd a4a3 7c3d
00000170: 8cd1 ef3d c03f e93b 2018 a43b 1816 41bd
00000180: 0dd0 28be 7b54 1dbe 70bb 0d3d fe5d bdbd
00000190: 6c75 f1bd f4d6 e0bd 2c6e 1b3d c8f2 b8bc
000001a0: cce9 dcbd 0025 7cbb 6cec 8e3d da23 c9bd
000001b0: 0069 df3b 8cec 93bd 28af 96bc d077 e33c
000001c0: 4e95 25bd 7468 2dbd d445 25bd b8fc ea3c
000001d0: e009 ea3b 642c 99bd 65aa 82bd 048e cb3d
000001e0: 56b8 7cbd 7c5b c93d e0f8 9c3c 60a0 3a3d
000001f0: 98de 563d 52c3 b3bd 9c0a 183d 8416 febd
00000200: b6b0 933d 6cd9 71bd 1e23 b8bd ea1f a23d
00000210: 360b 8bbd 70b9 e7bc 9e2a bf3d f29a 95bd
00000220: 00bb 2abd 80df e4bb e23a b43d 5a13 ffbd
00000230: d886 e33c 605e 41bd c282 82bd 4674 e53d
00000240: e07a b33b b865 a73d a658 943d 84ab c13d
00000250: b86d 1dbd 80da 6a3c 3426 023d ce56 f2bd
00000260: ca23 cdbd 565b b1bd e082 c5bd 5c90 3c3d
00000270: 80db 9c3c d025 f7bd 20bd 21bc b8d9 abbc
00000280: 6076 2e3d 46a7 be3d 70f4 92bc c821 b3bd
00000290: 3aac e7bd 0016 673d 0c85 7cbd 90ab 663c
000002a0: f47d 403d f4d4 7abd 804d bfbd 804d 413b
000002b0: 5c9b 6f3d c01f 56bb 3080 6abc c088 dd3b
000002c0: c83f 24bd 1a81 9b3d 804a d0bc 184b 293d
000002d0: 806e 1bbc f014 533d 000e 84bc 1ee5 bbbd
000002e0: b8c3 e53d eaca b0bd f4f6 673d 80cb 0fbd
000002f0: 383f cb3d 658c ba3c 8cc3 9e3d fe11 e2bd
00000300: 0276 923d 5150 ce3a feac a5bd 56c9 933d
00000310: ba47 5cbc 8171 67be f469 40bd 1384 36bd
00000320: 44df b6bd 5518 df3c d26f c93d 0a4e 2c3d
00000330: 8247 e63d 9223 c4bd daba c1bd c7d3 4e3c
00000340: 8e5c 13be 786d 573d f4d7 a23d 120f a3bd
00000350: e8ce 21bd 8b8d 2fbe c04c 003c ae3e a53d
00000360: 1560 3cbd d103 cc3b 50fe 68bd bf3c e33b
00000370: 1614 ebbd 7cab 5a3d 4525 1dbe 400f eabd
00000380: 3ffa 153c a0c9 38be 71b6 dbbb 6318 e8bd
00000390: 80c6 c53d a4e0 633d 50ce 51bd a8fa e83d
000003a0: 4ab2 e8bd fe89 e63d 382f 573d a2ea 853d
000003b0: 5823 83bc 1279 fdbd 8f60 9bbd cdb4 cdbd
000003c0: 1c38 c2bc 73b3 a6bd eb74 f83c 62e0 c43d
000003d0: eff6 6abd 8012 f73c 28e9 39bd 0ed8 04be
000003e0: 5b98 55be c035 373d 819a d7bd a06e 5bbc
000003f0: f683 bf3d be10 ef3c 0ead df3d e5a9 1cbe
0.09085439 0.10512109 -0.02002412 0.12265316 -0.17364463 0.0154218655 0.011290953 -0.010479137
-0.08128828 -0.023494184 -0.07443762 0.11544691 -0.0060055107 -0.066884995 0.07309835 -0.014753833
0.03383255 -0.11355515 0.009858057 -0.043480262 -0.06188473 -0.0512436 0.0951422 0.120144024
-0.14038107 -0.010647595 0.05559337 -0.014395282 0.08278093 -0.05080639 0.07224892 0.105225846
0.02537632 -0.14286539 -0.09682657 -0.09044084 0.044084877 0.058175683 0.09122662 -0.027352154
-0.063915536 0.067911 0.09300597 0.12036902 0.031634375 0.11782046 0.1077023 0.09535363
-0.09206804 -0.011183083 -0.058521003 0.01276584 -0.09390703 -0.108588815 -0.0041947784 0.118129045
-0.01430811 -0.1182991 -0.09849277 0.028829038 0.12048198 -0.040643305 0.11777195 -0.159605
0.07034846 -0.062198147 -0.090956524 0.04837875 -0.062171053 -0.008209779 0.0793515 0.1225573
0.11951864 0.066521406 -0.10913403 -0.1159976 0.09194946 0.056276932 -0.019321635 0.107295945
0.054497227 -0.1229665 0.029013261 -0.0850957 0.03227012 0.041059162 0.08427948 0.050465122
0.0038408868 -0.1041079 -0.090757385 0.061679497 0.1170989 0.0071181953 0.0050077587 -0.04714021
-0.16485615 -0.15364258 0.034602582 -0.09246443 -0.117899746 -0.10978499 0.037946865 -0.022576705
-0.10786781 -0.0038474202 0.06978688 -0.09821291 0.006817937 -0.07222852 -0.018394068 0.027767092
-0.04042559 -0.042335942 -0.040349796 0.028684959 0.0071422905 -0.0747917 -0.063801564 0.09939197
-0.061699234 0.098319024 0.019161642 0.0455631 0.052458376 -0.08777489 0.037119493 -0.12406638
0.07211439 -0.05904524 -0.08991073 0.079162434 -0.06789248 -0.028286666 0.093343005 -0.07304944
-0.041682243 -0.006984651 0.088002935 -0.12454863 0.02777426 -0.047209144 -0.06372596 0.11203818
0.0054772943 0.08173698 0.07243471 0.09456542 -0.038434714 0.014334321 0.031774715 -0.11832963
-0.10016592 -0.08659999 -0.09644103 0.04603611 0.019147635 -0.12067759 -0.009871751 -0.02097784
0.04259336 0.093092486 -0.017938823 -0.08746678 -0.113121465 0.056417465 -0.06165032 0.01407899
0.04699512 -0.061238244 -0.09340954 0.0029495656 0.05849777 -0.0032672733 -0.014312789 0.0067606866
-0.04009989 0.075929835 -0.02542615 0.04133138 -0.0094867945 0.05153364 -0.016119957 -0.0917456
0.11218971 -0.08632453 0.056631997 -0.035106182 0.099241674 0.022772023 0.07752141 -0.11038588
0.071514145 0.0015740489 -0.08089636 0.07216136 -0.013444835 -0.22601892 -0.046976045 -0.04455955
-0.08929303 0.027233282 0.09835781 0.04206661 0.11244108 -0.09577097 -0.09459467 0.012623734
-0.14390776 0.052594632 0.07951346 -0.07961859 -0.03950396 -0.17143838 0.007830799 0.08068596
-0.04599007 0.006226041 -0.056883156 0.0069347317 -0.114784405 0.053386196 -0.15346248 -0.1142869
0.009153902 -0.18045664 -0.0067050983 -0.113327764 0.096570015 0.055634156 -0.051222146 0.11375934
-0.11362131 0.11256789 0.052535266 0.06538893 -0.016008064 -0.12376608 -0.075867765 -0.10044251
-0.023708396 -0.08139696 0.030329188 0.0961311 -0.0573644 0.030160189 -0.04538837 -0.12973043
-0.208589 0.044728994 -0.10527516 -0.013393074 0.093513414 0.029182788 0.109216794 -0.15299185

fc3.bias f4 [64]
00000000: a00e 1f3d 7dba 54bd 6454 c1bd 0247 08bd
00000010: 1e93 df3c 0238 a7bd bbf4 863d cac7 ffbd
00000020: 05ed c63c d6e2 f53c 1c3f bb3d 4fed e03c
00000030: 3c12 f43d f0af a13c ac17 c0bd 062f 2c3c
00000040: 4003 763c 8b48 803d 5e0b 2a3d e545 893c
00000050: 0c4b 5a3c 478a 50bd d025 ecbc 02a4 36bd
00000060: 2888 19be 0f48 2cbc 3c72 f13d 53a0 cfbd
00000070: b934 a63d 50e5 bd3c b0cc 6fbd 2eb4 aebd
00000080: 665d 963d ca74 cb3c 2e00 dfbd 420e 643c
00000090: 66d7 1ebd 9b55 d13d 0617 bebc ba06 05bd
000000a0: 4b8e 3f3b cdea e5bc c872 da3d 17fa 09be
000000b0: 2c3c 65bc a501 c1ba 081a 78bd 047e c3bd
000000c0: 9734 033e b9b6 99bd 8c69 d4bd 1aff 003d
000000d0: 9463 8abd 5a25 92bd 4a9f 873d dd60 f13d
000000e0: c025 e6bb b4ce f6bd 18c5 e53d 29db 0a3e
000000f0: 6732 f13d 1613 b5bd 1417 023d 7f31 5abc
0.038832307 -0.05193566 -0.09439924 -0.033270843 0.02729183 -0.081649795 0.065896474 -0.124892786
0.024282942 0.03001539 0.091428965 0.027456908 0.119175404 0.019737214 -0.09379515 0.010509258
0.015015423 0.062638365 0.041514747 0.016756961 0.013323557 -0.05091312 -0.028826624 -0.044590004
-0.14993346 -0.010515227 0.117893666 -0.10138001 0.08115525 0.023180634 -0.058544815 -0.0853046
0.07342033 0.024835963 -0.10888706 0.013919415 -0.03877964 0.10221406 -0.023204338 -0.032477118
0.00292291 -0.028066063 0.10666424 -0.13474308 -0.013991397 -0.0014725222 -0.0605717 -0.0954552
0.1281303 -0.07505555 -0.10371694 0.031493284 -0.06757274 -0.071360305 0.06622179 0.11786053
-0.007023543 -0.12051144 0.11219233 0.13560165 0.117771916 -0.08841531 0.03176029 -0.013317465

out.weight f4 [1, 64]
00000000: ab2d 18bd 20e9 06bd 963d 4dbd a5b5 a63b
00000010: 2028 7c3c d475 b13b 0f31 06bb 1423 253d
00000020: a2c7 103d 7afd 98bc ea03 d3bc 40c8 983d
00000030: 387c 07bd 0e45 73bc 94b9 48bd 32d6 0dbc
00000040: 0e45 a4bc 6d41 e23c 2f00 fdbc 6c48 0abd
00000050: 70e7 e93c 9397 e73b b056 0e3d dd09 0c3d
00000060: c342 ec3c 7636 353d 4754 33bd 494e 7d3d
00000070: 686a 953c 9022 ad3c 6ed5 9abd ef66 8e3d
00000080: 6655 adbd 1fcc b6bd 40cc 8fbc e49c 4ebd
00000090: 7b1a d43a 695f e73c 4118 f3bc 4b15 0dbd
000000a0: b7eb 89bd db9d 0abd 2bcf 683d fe7a 013d
000000b0: 1ee2 823d 22e0 d63c 184e 9a3c 26d0 e4bd
000000c0: 521b 12bd a8ad da3c 2099 9d3d 4b3a 67bd
000000d0: d8ef e83c 5247 933d 1c1d 983d 7552 b83d
000000e0: 0036 d93d a04e f0bc 5da3 3b3d 0280 ebbd
000000f0: 92c2 853d 8a52 8e3d 3508 343c 20aa eabd
-0.037152927 -0.03293717 -0.05010756 0.0050875717 0.015390426 0.0054156575 -0.0020476019 0.040316656
0.035346635 -0.018675555 -0.025758702 0.0746007 -0.03307745 -0.014848007 -0.049005106 -0.008657025
-0.02005246 0.027619088 -0.030883877 -0.033760473 0.02855274 0.0070676296 0.03475064 0.034189094
0.028840428 0.04424139 -0.043781545 0.061842237 0.018239215 0.021134645 -0.0756024 0.06953227
-0.08463554 -0.08925652 -0.017553449 -0.05044259 0.0016182208 0.028243737 -0.029674651 -0.034444135
-0.06734412 -0.03384195 0.056838196 0.031611435 0.06390785 0.026229922 0.018836066 -0.11172514
-0.035670586 0.026694134 0.07695222 -0.056452077 0.028434679 0.07191338 0.07427427 0.090001024
0.10606003 -0.029334366 0.045810092 -0.11499025 0.06531252 0.06949337 0.010988285 -0.1145823
